static/py/sketch2num_weights.pth (torch, 903847 bytes, 8 tensors)

conv1.weight f4 [32, 1, 3, 3]
0	0xbc00fb30	-0.007872388
1	0x3dd08531	0.10181654
2	0x3e405104	0.18780905
3	0xbe9f8203	-0.3115388
4	0x3e8bb5f0	0.27287245
5	0x3ec3259c	0.3811463
6	0xbe9c1a2a	-0.30488712
7	0x3e1d85df	0.15383099
8	0x3d441883	0.04787494
9	0x3eb4b5ef	0.35295054
10	0x3e07d44c	0.13264579
11	0xbe3a1b3f	-0.18174456
12	0xbdb06d44	-0.08614591
13	0x3ea045f8	0.31303382
14	0xbe6087f5	-0.21926863
15	0xbeb8101b	-0.35949787
16	0xbe9e3734	-0.30901492
17	0x3e922b3f	0.2854862
18	0x3cde1e78	0.027114138
19	0x3ef22f39	0.47301653
20	0x3e0bf158	0.13666284
21	0xbed1f5fe	-0.4100799
22	0x3e692574	0.22768193
23	0x3ec2e168	0.38062596
24	0xbf20037c	-0.62505317
25	0xbec604cb	-0.38675532
26	0xbe909d10	-0.2824483
27	0x3db42f35	0.087980665
28	0x3e8b802e	0.2724623
29	0xbc5994a7	-0.01328007
30	0x3ecf2f42	0.40465742
31	0x3e3ddd1b	0.18541376
32	0x3e63618f	0.22205184
33	0x3e3595fb	0.17732994
34	0x3e9cf04b	0.3065208
35	0x3ec3daaa	0.38252765
36	0x3e93a325	0.28835407
37	0xbba4cc0b	-0.0050292066
38	0x3ea0e1e3	0.31422338
39	0xbe903bf1	-0.28170732
40	0xbeb6a0dd	-0.35669604
41	0xbed416f5	-0.41423765
42	0xbdc145f6	-0.09437172
43	0x3b015ac4	0.0019737938
44	0x3d94b5fa	0.07261272
45	0x3dfb5a34	0.12273064
46	0xbe6f9e9e	-0.23400351
47	0xbec454e7	-0.38346025
48	0x3ed47305	0.41494003
49	0xbe45f473	-0.19331531
50	0xbef9e95e	-0.48810858
51	0x3efe8c31	0.49716333
52	0xbe015332	-0.12629393
53	0x3e505c56	0.20347723
54	0x3e37b033	0.17938308
55	0x3e1d3519	0.15352286
56	0xbea9cf2b	-0.3316587
57	0xbe36520b	-0.17804734
58	0xbcc3801e	-0.023864802
59	0x3d812e1c	0.06307623
60	0x3ca96ee7	0.020682765
61	0x3e9f9f83	0.31176385
62	0x3ee68db5	0.4502999
63	0x3e870819	0.26373366
64	0x3ecd9f1a	0.40160447
65	0x3ed19f3e	0.40941805
66	0xbd315d06	-0.043301605
67	0xbe1075b5	-0.14107402
68	0x3ec8fee8	0.39256978
69	0xbe82d6be	-0.2555446
70	0xbe6519c1	-0.22373106
71	0x3e622cd4	0.22087413
72	0xbed64202	-0.41847235
73	0xbed0c50f	-0.40775344
74	0x3eda5320	0.42641544
75	0x3c5754b6	0.013142755
76	0xbf2f8f1b	-0.68577737
77	0xbe1356af	-0.14388536
78	0x3e6dcb80	0.2322216
79	0xbe724fd9	-0.23663272
80	0xbeba3609	-0.3636935
81	0xbe90750e	-0.28214306
82	0x3eb44a99	0.35213163
83	0xbe3b7fe8	-0.18310511
84	0x3c6ec997	0.01457443
85	0x3e1cf2ad	0.15326948
86	0x3eda047b	0.42581543
87	0x3ce9fccd	0.028562928
88	0x3ecc6129	0.39917877
89	0x3dc93871	0.098252185
90	0xbd89baa3	-0.06725051
91	0xbc2abbd1	-0.0104207555
92	0x3e1a2d37	0.1505631
93	0xbde1142f	-0.10990178
94	0xbdafdadb	-0.08586665
95	0xbeda178c	-0.4259609
96	0x3e81e885	0.2537271
97	0x3eee49c6	0.4654066
98	0x3dd13499	0.1021511
99	0xbebd1444	-0.36929524
100	0xbe96fbe6	-0.29489058
101	0xbdbd15cb	-0.09232672
102	0x3e85752d	0.2606596
103	0x3edf5054	0.43615973
104	0x3eb3568e	0.35026973
105	0x3d266c19	0.040630434
106	0x3def074c	0.11671314
107	0x3e2bb156	0.16766867
108	0xbe1c9d62	-0.15294412
109	0x3ee9a8fb	0.45636734
110	0x3ea12e56	0.31480664
111	0xbec1e07a	-0.37866575
112	0x3e582334	0.21107179
113	0x3c987f16	0.018615287
114	0x3d408b39	0.047007773
115	0x3d048a80	0.032358646
116	0xbcbc3f29	-0.022979336
117	0xbe8baded	-0.27281132
118	0xbf079b16	-0.5297102
119	0xbf0f78e2	-0.5604383
120	0xbd6cd5de	-0.057821147
121	0x3e00dca1	0.12584163
122	0x3e384881	0.17996408
123	0x3eb80c98	0.35947108
124	0x3c8f7bac	0.017515026
125	0x3ed2b87a	0.4115637
126	0xbe26d542	-0.16292289
127	0x3d9bbd3e	0.076044545
128	0x3d263657	0.040579166
129	0xbe93af2e	-0.2884459
130	0xbe7f5d38	-0.24937904
131	0xbe26a522	-0.1627393
132	0xbd8e37a5	-0.06944207
133	0xbe6b42ee	-0.2297475
134	0xbe87577d	-0.26433936
135	0xbe26f28d	-0.16303463
136	0x3e9ae2ed	0.30251256
137	0xbe6d13fa	-0.23152152
138	0x3ec26bed	0.37972966
139	0x3ed38ce4	0.4131843
140	0xbe1981b1	-0.1499088
141	0x3eaa47ce	0.33257908
142	0x3d6fa165	0.058503527
143	0xbe9b069e	-0.30278486
144	0xbd138799	-0.036017988
145	0x3e859dc3	0.26096925
146	0x3e187d4e	0.1489155
147	0x3e583c70	0.21116805
148	0x3e91a58d	0.28446618
149	0x3e6c3640	0.2306757
150	0x3ec1933d	0.37807646
151	0xbe9559fb	-0.29170212
152	0x3e335857	0.17514168
153	0xbdb4f4b5	-0.08835737
154	0x3ee6cc68	0.45077825
155	0x3c35a041	0.011085571
156	0x3e3da078	0.18518245
157	0x3e869c1a	0.2629097
158	0xbe3145e8	-0.17311823
159	0xbd40c1d8	-0.047059864
160	0xbe457c36	-0.19285664
161	0xbef3108e	-0.47473568
162	0x3e7a556a	0.24446645
163	0xbe738b91	-0.23783709
164	0xbd964027	-0.07336455
165	0x3ebb67a5	0.36602512
166	0x3d9f5d3d	0.07781456
167	0x3dcbb7bf	0.09947156
168	0x3e9fd3e2	0.3121634
169	0xbe221fc7	-0.15832435
170	0x3e26d3db	0.16291754
171	0x3ea0d91f	0.3141565
172	0x3ed6daa0	0.41963673
173	0x3e87fe47	0.26561186
174	0x3ec8bdf3	0.3920742
175	0x3eef1f39	0.46703508
176	0x3eb2a350	0.34890223
177	0xbd191368	-0.037372023
178	0x3daca219	0.08429355
179	0xbea0e63b	-0.31425652
180	0xbd5d0c00	-0.053966522
181	0x3ecb2bbb	0.396818
182	0x3eee7a83	0.46577844
183	0xbf04e694	-0.51914334
184	0xbe3e31af	-0.1857364
185	0x3ecbc189	0.39796093
186	0xbe9c65a4	-0.30546296
187	0xbdaf7a70	-0.08568275
188	0x3e83ff76	0.2578084
189	0xbdca9a85	-0.098927535
190	0xbf0ae0eb	-0.5424945
191	0xbe0dec51	-0.13859679
192	0xbe6452aa	-0.22297159
193	0x3ea987c4	0.33111393
194	0x3de83e50	0.1134001
195	0x3ed0aea2	0.40758234
196	0x3e5507a3	0.20803694
197	0x3e750ebd	0.23931403
198	0x3f046c4d	0.51727754
199	0x3e668104	0.22510153
200	0x3e996972	0.2996326
201	0xbe372221	-0.17884113
202	0xbe474114	-0.19458419
203	0xbdc4fec0	-0.09618902
204	0xbf10fcc0	-0.56635666
205	0xbd456556	-0.048192345
206	0xbe535f02	-0.20641711
207	0xbee952a1	-0.45570853
208	0xbeb63f16	-0.35595006
209	0xbe3fa69f	-0.18715905
210	0xbe4bf556	-0.19917807
211	0xbde552b0	-0.11197412
212	0x3e2c7291	0.16840579
213	0x3ec1dff1	0.37866166
214	0x3e86a830	0.26300192
215	0x3e612cef	0.21989797
216	0xbe3054fe	-0.17219922
217	0x3e6b13ed	0.2295682
218	0xbdd05eb5	-0.10174314
219	0xbb9c05b8	-0.004761424
220	0x3cae518b	0.021279117
221	0x3e701fea	0.23449674
222	0x3e6b6a3c	0.22989744
223	0xbd209ba8	-0.039210945
224	0x3e954304	0.2915269
225	0x3e312ac0	0.17301464
226	0x3ee7668b	0.45195422
227	0x3eae6726	0.3406307
228	0x3e700b58	0.23441827
229	0x3e1b1e1b	0.15148203
230	0xbeb1c11b	-0.3471764
231	0xbdadb00f	-0.08480846
232	0x3d4ea3d5	0.05044921
233	0xbe47bd2f	-0.19505762
234	0x3ed4433f	0.41457555
235	0xbddea9d2	-0.108722344
236	0x3ee02d9b	0.43784794
237	0x3e07a770	0.13247466
238	0x3eb87e31	0.36033776
239	0xbe81cd50	-0.25351954
240	0xbefc7d2d	-0.49314252
241	0xbf1ee289	-0.62064415
242	0xbe79f492	-0.24409702
243	0x3e74895f	0.23880528
244	0x3ef93a63	0.48677358
245	0xbe07f213	-0.13275938
246	0x3e3f9023	0.18707328
247	0xbea13fe9	-0.31494072
248	0xbeea061f	-0.45707795
249	0x3e13c2ce	0.14429781
250	0xbe615ae1	-0.22007324
251	0x3d9a52fa	0.07535358
252	0xbea29e6b	-0.31761488
253	0xbf19139c	-0.59795547
254	0xbe73bca8	-0.23802435
255	0x3ec8d0c4	0.39221776

conv1.bias f4 [32]
0	0x3d24785f	0.040153857
1	0x3d5eb92d	0.054375816
2	0x3ea520fa	0.32251722
3	0xbd35012b	-0.044190567
4	0x3e964bc7	0.2935469
5	0x3e382683	0.17983441
6	0xbe24de14	-0.16100341
7	0x3d7003cc	0.05859737
8	0x3ebaf453	0.3651453
9	0xbcd3e36b	-0.025865277
10	0xbcf4d13b	-0.029884925
11	0x3dd4eeba	0.10397096
12	0xbcb0e4c5	-0.02159346
13	0x3e8e94f3	0.27848014
14	0x3eb5f163	0.35535726
15	0xba9fdf48	-0.001219728
16	0xbd355668	-0.044271857
17	0x3e6f6967	0.23380052
18	0xbb3571b8	-0.002768619
19	0xbe033d90	-0.12816453
20	0xbdd242bf	-0.10266637
21	0xbdc28038	-0.09497112
22	0xbadaa6c3	-0.0016681779
23	0x3e7f1b0d	0.24912663
24	0x3d488e96	0.048964106
25	0xbbebf6d5	-0.0072010555
26	0x3e858ace	0.26082462
27	0xb93d9032	-0.00018078162
28	0xbd9eeb01	-0.07759667
29	0xbd817574	-0.063212305
30	0x3e0246fe	0.12722394
31	0x3dbe8e7e	0.09304522

conv2.weight f4 [64, 32, 3, 3]
0	0x3dafd43c	0.08585402
1	0xbd8d43be	-0.068976864
2	0xbc2f777f	-0.010709642
3	0x3d02dbe0	0.03194797
4	0xbd9c51b0	-0.07632768
5	0xbd879f0c	-0.06622133
6	0xbda2e3e1	-0.07953621
7	0xbd71f714	-0.059073523
8	0xba18c9bc	-0.00058284006
9	0xbdc69eaf	-0.09698235
10	0x3ca5240c	0.02015879
11	0x3c1b8a0b	0.009493361
12	0x3d0c34d9	0.034230087
13	0x3d8a2082	0.067444816
14	0xbdb4b43a	-0.08823438
15	0x3d845891	0.06462205
16	0x3db0e3e9	0.086372204
17	0x3d3fae9d	0.046797384
18	0xbcda1a9b	-0.026624015
19	0xbdb268fb	-0.0871143
20	0x3cbc5c25	0.022993157
21	0x3d1e9aa5	0.0387217
22	0xbd87f89e	-0.06639217
23	0xbca5f50c	-0.020258449
24	0x3be7d69b	0.0070751435
25	0xbc956ba5	-0.018239805
26	0xbd31f88b	-0.04344992
27	0x3d8bf484	0.06833747
28	0x3bac564d	0.0052593113
29	0xbdcb291a	-0.09919949
30	0x3d91368a	0.070904806
31	0xbd91319b	-0.070895396
32	0xbd980154	-0.07422128
33	0xbcf6ce0a	-0.030127544
34	0xbcabc4dc	-0.020967893
35	0xbc90ceec	-0.017676793
36	0xbd39674d	-0.04526453
37	0x3d0e23fb	0.034702282
38	0xbbf23044	-0.0073910076
39	0x3c3207eb	0.010866146
40	0x3daec42d	0.08533511
41	0xbc5bf4f2	-0.013425099
42	0x3df2a710	0.11848271
43	0x3d8c348a	0.068459585
44	0x3d0e3ea2	0.0347277
45	0xbd9ca4f3	-0.07648649
46	0x3e03cb59	0.1287054
47	0x3c08247a	0.008309478
48	0x3d60796d	0.0548033
49	0x3d969fb4	0.0735468
50	0xbc86d28a	-0.016457815
51	0x3b519792	0.0031981212
52	0x3cdcd116	0.026955169
53	0xbd9e9410	-0.077430844
54	0x3c8a5435	0.016885856
55	0xbda84a65	-0.08217315
56	0xbdc7ae37	-0.09750026
57	0xbd6d75e6	-0.057973765
58	0xbd0fd59a	-0.035115816
59	0xbd20d64a	-0.039266862
60	0xbca579e1	-0.020199718
61	0xbc8a38b2	-0.016872738
62	0x3d2246f3	0.039618444
63	0x3d7d6b31	0.061869804
64	0x3d32815c	0.043580398
65	0xbd585892	-0.052818842
66	0x3dad6de5	0.08468226
67	0xbd028981	-0.031869415
68	0xbda93de1	-0.082637556
69	0xbc366057	-0.011131368
70	0xbdcabee6	-0.09899692
71	0xbc93787a	-0.018001784
72	0xbda5c71e	-0.08094619
73	0xbd0e8292	-0.03479249
74	0x3d9c178e	0.0762168
75	0xbda4a43c	-0.08039138
76	0xbdc007fc	-0.09376523
77	0xbca0d52e	-0.019632902
78	0xbd0aaad4	-0.03385432
79	0x3cc66f67	0.024223043
80	0xbd928bb9	-0.07155556
81	0x3d1e8644	0.038702264
82	0x3d60bf75	0.054870088
83	0xbdc5bce6	-0.0965517
84	0x3d833f65	0.06408576
85	0xbdbffc8c	-0.09374341
86	0x3baf5141	0.0053502624
87	0xbc929a25	-0.017895767
88	0xbc81b8e9	-0.015835242
89	0x3d846a5a	0.064655975
90	0xbc6ac051	-0.014328078
91	0x3ac9fad1	0.0015409832
92	0xbde77b3e	-0.113028035
93	0x3c62afd1	0.013835863
94	0xbd8e4fbc	-0.06948802
95	0xbd8fa5b2	-0.07014026
96	0xbd953a7d	-0.072865464
97	0xbd50ad99	-0.050946806
98	0x3b84e435	0.0040555247
99	0x3d742718	0.059607595
100	0xbd4f1127	-0.050553467
101	0xbe0861d9	-0.13318576
102	0x3ccbf34d	0.024896288
103	0xbd889e35	-0.066708006
104	0x3cff061f	0.031130848
105	0xbd204dcc	-0.039136693
106	0x3c90a096	0.017654698
107	0x3d990c98	0.07473105
108	0x3d77849e	0.060429208
109	0xbc1b7ea6	-0.009490645
110	0xbdee667c	-0.11640641
111	0x3de6f30e	0.11276828
112	0xbdbc6e6c	-0.09200749
113	0xbda66fe1	-0.08126808
114	0xbb826cd4	-0.0039802585
115	0xbe2ee63d	-0.17080016
116	0xbc78f318	-0.015194677
117	0x3abf4e79	0.001459553
118	0xbdfa2901	-0.12214852
119	0xbbe197b7	-0.006884541
120	0xbc5c3032	-0.013439225
121	0xbc179170	-0.009250984
122	0xbcd4ea7d	-0.025990719
123	0xbd304258	-0.04303202
124	0xbc762eab	-0.015025775
125	0x3d4602eb	0.048342627
126	0xbdceaefe	-0.10091971
127	0xbd6f8fa9	-0.058486614
128	0x3d706839	0.058693144
129	0xbd23d7e5	-0.040000815
130	0xbda1dcbf	-0.07903432
131	0xbceb1bae	-0.028699722
132	0x3c21aa52	0.009867268
133	0x3d8a2d6f	0.06746947
134	0xbd5ed429	-0.05440155
135	0x3cf83651	0.030299338
136	0x3e1ec27c	0.15503877
137	0xbe206742	-0.1566439
138	0x3d9fb90b	0.07798966
139	0x3dbc3df5	0.09191505
140	0xbe29d385	-0.16584595
141	0x3d464741	0.048407797
142	0xbd5f093f	-0.054452177
143	0x3b0edce4	0.0021799142
144	0x3def5246	0.11685614
145	0x3d16c7f1	0.036811773
146	0xbda82427	-0.082100205
147	0x3decf6c4	0.11570504
148	0xbd680f02	-0.056654938
149	0xbd558a27	-0.052133705
150	0xbc9fe66f	-0.019519059
151	0xbd8a203a	-0.06744428
152	0x3bbbf1a2	0.005735592
153	0x3d6f0018	0.0583497
154	0x3de46941	0.11152888
155	0x3c6d6ad5	0.014490803
156	0x3e1b586c	0.15170449
157	0x3db3eeb3	0.08785763
158	0xbdf882ad	-0.121342994
159	0x3dbcfc08	0.09227759
160	0x3cce609e	0.025192555
161	0xbbbbf50b	-0.0057359985
162	0x3da9e892	0.082963124
163	0x3dac1cd5	0.08403937
164	0x3b28e5c0	0.0025771707
165	0x3cfab6c9	0.030604737
166	0x3d807407	0.062721305
167	0xbe0a096c	-0.13480157
168	0x3d26734a	0.040637292
169	0xbc409487	-0.011754162
170	0xbd02886a	-0.031868376
171	0x3d9beaf1	0.07613171
172	0x3d926112	0.07147421
173	0xbd8f781b	-0.0700533
174	0x3d964add	0.07338498
175	0x3d88ca30	0.06679189
176	0xbe142657	-0.1446775
177	0x388860bc	6.5030035e-05
178	0xbda06cea	-0.07833274
179	0x3d442d37	0.047894683
180	0x3e00f6ce	0.12594149
181	0xbe0ead7e	-0.1393337
182	0xbd5bdb5e	-0.053676
183	0x3d155594	0.036458567
184	0xbe6bae01	-0.23015596
185	0xbc0b7822	-0.008512529
186	0xbd85e2a5	-0.0653737
187	0xbe1a5593	-0.15071706
188	0x39c5fe25	0.0003776412
189	0xbd4431ca	-0.047899045
190	0xbe1421fc	-0.14466089
191	0xbe24818e	-0.16065046
192	0xbd896319	-0.067083545
193	0xbe261140	-0.16217518
194	0x3d78bb85	0.060725708
195	0xbe31120d	-0.17292042
196	0x3d259f24	0.04043497
197	0x3d898308	0.06714445
198	0xbe30f0bc	-0.17279333
199	0xbca32872	-0.019916747
200	0x3cb109f0	0.021611184
201	0x3aa4994a	0.0012557891
202	0x3de18deb	0.11013397
203	0xbdd0838b	-0.1018134
204	0x3e1ab8e2	0.1510959
205	0x3cf72030	0.030166715
206	0xbcabbc57	-0.02096383
207	0xbcc51a56	-0.02406041
208	0xbde67727	-0.11253195
209	0x3bd72673	0.006565863
210	0xbdd0077e	-0.10157679
211	0xbda4c3a9	-0.08045132
212	0x3d3c368a	0.04595045
213	0xbd9c4bc5	-0.076316394
214	0xbc8efc70	-0.017454356
215	0x3d6e5570	0.05818695
216	0x3d42d0b6	0.047562324
217	0x3c594744	0.01326162
218	0xbdd3423e	-0.10315369
219	0xbb59c066	-0.003322625
220	0xbcb96264	-0.022629924
221	0xbaf6492f	-0.0018790121
222	0xbd3e8663	-0.04651488
223	0xba768065	-0.00094032875
224	0x3d6cdcf1	0.057827894
225	0x3d654bd2	0.05598051
226	0x3e0d3293	0.13788824
227	0xbd368c55	-0.044567425
228	0x3df15f95	0.11785809
229	0x3cac6331	0.021043392
230	0xbe187248	-0.14887345
231	0x3d73978b	0.059470695
232	0xbda4b11e	-0.08041595
233	0xbd171e34	-0.03689404
234	0xbd57d122	-0.05268968
235	0x3db4c735	0.08827058
236	0x3d2b4621	0.041814927
237	0x3d287854	0.04113038
238	0x3d73d02b	0.059524696
239	0xbdb24b0c	-0.0870572
240	0x3ce49196	0.027901452
241	0xbc36f0cd	-0.01116581
242	0xbc4397c4	-0.011938039
243	0xbd499d20	-0.04922211
244	0x3e091978	0.13388622
245	0x3d7bd801	0.061485294
246	0x3e071c2d	0.13194342
247	0x3e091301	0.13386156
248	0xbe11d784	-0.14242369
249	0x3d2e92ad	0.04262035
250	0x3d031860	0.032005668
251	0xbd85c0d7	-0.06530922
252	0xbe182044	-0.14856058
253	0xbe614bf3	-0.22001629
254	0xbe3640f5	-0.17798217
255	0xbdd75fd1	-0.105163224

conv2.bias f4 [64]
0	0xbd1ad67a	-0.037802197
1	0xbd8c9de9	-0.068660565
2	0xbcd6db68	-0.026227668
3	0x3c5dc4dd	0.013535705
4	0x36d930a0	6.4727647e-06
5	0xbc533591	-0.012891189
6	0xbd9ede46	-0.07757239
7	0xbd741aee	-0.059595995
8	0xbdd5045d	-0.10401223
9	0x3c82c7f1	0.01596448
10	0x3c52e022	0.01287082
11	0xbdd86a2d	-0.105671264
12	0x3c655249	0.013996669
13	0xba18f229	-0.00058344245
14	0x3ccd192c	0.025036417
15	0xbd6582f4	-0.05603309
16	0xbd851ab9	-0.064992376
17	0xbc3c1716	-0.0114801135
18	0x3c0165c3	0.007897797
19	0xbcccaa5a	-0.024983574
20	0x3d676e30	0.056501567
21	0xbd57e856	-0.052711807
22	0xbcd45a1c	-0.025921874
23	0x3c8ec2e6	0.01742692
24	0xbdb2ffd6	-0.08740203
25	0xbd0bc8ab	-0.03412692
26	0xbd1adc4d	-0.03780775
27	0x3c7a35d7	0.0152716255
28	0xbd21fc0b	-0.039547008
29	0xbd0ec180	-0.034852505
30	0x3a3873ea	0.00070363155
31	0x3d092f10	0.033492148
32	0x3b0fd71e	0.0021948288
33	0xbba24360	-0.0049518794
34	0x3b1e23c5	0.0024130207
35	0x3d360d6a	0.044446386
36	0xbca5865f	-0.020205675
37	0xbc7cc4ba	-0.015427763
38	0xbd1a3be3	-0.03765477
39	0xbd3a0e2a	-0.045423664
40	0x3c8b030c	0.016969226
41	0xbdbbf24a	-0.09177072
42	0x3cf1134c	0.029428147
43	0x3ce0142d	0.02735337
44	0xbd4f6bf2	-0.050640054
45	0x3c8237d2	0.015895758
46	0xbd856515	-0.065134205
47	0xbdecb6f5	-0.11558334
48	0x3c5354bb	0.012898619
49	0xbdd85b54	-0.105642945
50	0xbc1d0044	-0.009582583
51	0xbccbba05	-0.024868974
52	0xbd8153cc	-0.06314811
53	0xbd9eac5c	-0.07747719
54	0xbd7df4b0	-0.06200093
55	0x3ae35416	0.0017343785
56	0xbd5ca41c	-0.053867444
57	0x3d2d0764	0.042243376
58	0xbd069312	-0.0328551
59	0xbd0b26f7	-0.033972707
60	0x3cff2127	0.031143738
61	0x3c93af18	0.018027827
62	0x3cd0f42b	0.025507053
63	0xbd5e837b	-0.05432461

fc1.weight f4 [128, 1600]
0	0x3d0ad0a8	0.033890396
1	0x3d17fbad	0.03710525
2	0x3d337495	0.043812353
3	0x3e0d80ca	0.1381866
4	0x3da0f1b0	0.07858598
5	0x3d45914e	0.048234276
6	0x3cc43313	0.023950135
7	0xbba3377f	-0.004980981
8	0x3ba293ca	0.0049614655
9	0xbd0142bc	-0.031557783
10	0xbd739d18	-0.05947599
11	0xbc02f74b	-0.00799353
12	0x3cb6e814	0.02232746
13	0xbc46d3e5	-0.0121354805
14	0xbd934745	-0.07191328
15	0xbc7a942a	-0.015294114
16	0xbe1b1f23	-0.15148596
17	0xbcf32fec	-0.029685937
18	0xbca80042	-0.020507935
19	0xbd1c6110	-0.038178504
20	0x3cd90a98	0.02649431
21	0xbd4c25ea	-0.049840845
22	0x3d036854	0.032081917
23	0x3cffdd72	0.031233523
24	0x3d33478b	0.0437694
25	0xbcf82c28	-0.030294493
26	0x3ca3706b	0.019951066
27	0xbcd4ce9c	-0.025977425
28	0x3d130989	0.035897765
29	0xbc0e3156	-0.008678755
30	0x3d0e658b	0.034764808
31	0x3b9e78e3	0.004836188
32	0xbc70b588	-0.014691718
33	0xbc5c1e0b	-0.013434897
34	0xbd8cdbdc	-0.06877872
35	0x3ce6beea	0.028167207
36	0x3d85ae4f	0.06527387
37	0x3dbdd39d	0.09268878
38	0xbaf8a150	-0.0018968973
39	0xbd44d224	-0.04805197
40	0xbd075808	-0.033042938
41	0xbd8d8a9f	-0.069112055
42	0x3c0b6b57	0.0085094785
43	0x3c338f57	0.010959468
44	0xbcda3550	-0.02663675
45	0xbcd1b16a	-0.025597293
46	0xbdbc9fe4	-0.09210184
47	0x3d56f290	0.05247742
48	0x3cd72740	0.026263833
49	0xbcd59ac4	-0.026074775
50	0x3b43214e	0.002977449
51	0x3c625c4f	0.013815953
52	0xbc9da21a	-0.019242335
53	0x3d08b037	0.033371177
54	0x3db4a554	0.08820596
55	0x3c4e5cae	0.012595339
56	0xbbec58aa	-0.007212718
57	0x3b8b0234	0.004242206
58	0x3cbbdf01	0.022933485
59	0xbd9f5033	-0.07778969
60	0xbd88f105	-0.06686596
61	0xbd9134ff	-0.07090186
62	0x3c40354e	0.011731459
63	0xbd8b8848	-0.06813103
64	0xbde1f49b	-0.11032983
65	0xbc9ff779	-0.019527184
66	0xbdb9d7b1	-0.09074343
67	0xbd9816f0	-0.0742625
68	0x3d9b6a2e	0.075886115
69	0xbcd43678	-0.025904879
70	0xbd8b0971	-0.0678891
71	0x3d2aff11	0.041747157
72	0x3d819d62	0.063288465
73	0x3c7e481e	0.015520124
74	0x3c72c6e6	0.014817929
75	0x3c84d681	0.016215565
76	0xbccf0942	-0.02527297
77	0xbba7e1ab	-0.0051233373
78	0xbccbe5ea	-0.024889905
79	0xbb999d64	-0.004687952
80	0xbd3d68fe	-0.046242706
81	0xbd0f129f	-0.034929868
82	0x3c81ae00	0.01583004
83	0x3cd77d29	0.026304798
84	0x3be72d81	0.007054985
85	0x3c755c89	0.014975675
86	0x3d146b4d	0.036235142
87	0xbcaa1131	-0.02076015
88	0x3d6edae4	0.05831422
89	0x3d071164	0.03297557
90	0x3d149569	0.0362753
91	0x3d61e509	0.055150066
92	0xbc8a37f3	-0.016872382
93	0xbca97e22	-0.020690028
94	0x3c6d9e7c	0.014503118
95	0xbbf3c8bc	-0.007439701
96	0x3cd39b77	0.025830967
97	0x3d352e10	0.04423338
98	0x3d12d7be	0.03585028
99	0xbafb35b8	-0.001916579
100	0xbc98a57f	-0.018633602
101	0xbcffb528	-0.031214312
102	0x3c4ad90b	0.012380849
103	0x3dd0fe46	0.10204749
104	0x3d802b34	0.0625824
105	0xbda201f2	-0.07910527
106	0xbd303c52	-0.043026276
107	0x3d81bde7	0.06335049
108	0x3dd77806	0.105209395
109	0x3d74bf49	0.059752736
110	0xbd779b3a	-0.06045077
111	0x3d1197a9	0.035545025
112	0x3db925b3	0.09040394
113	0x3d7ff1c7	0.062486436
114	0xba472987	-0.00075974356
115	0xbd3efde4	-0.046628848
116	0xbc890c7a	-0.016729582
117	0x3b6a52d8	0.0035754945
118	0x3beffd9f	0.007323935
119	0xbdde6a86	-0.108601615
120	0xbc57bf35	-0.013168146
121	0x3d3f4c58	0.046703666
122	0xbd2ed279	-0.04268119
123	0xbbd601a4	-0.0065309573
124	0xbc9cc5dc	-0.019137315
125	0xbd000b67	-0.031260874
126	0xbd382077	-0.044952836
127	0xbcc3f2f1	-0.023919554
128	0x3be28897	0.0069132554
129	0xbb643645	-0.0034822386
130	0xbdbd7ff5	-0.092529215
131	0xbe004e51	-0.12529875
132	0xbd79cc75	-0.060986
133	0x3de834c6	0.11338191
134	0x3d146915	0.036233027
135	0xbd458a25	-0.048227448
136	0xbcbb6361	-0.022874536
137	0xbc99f3d5	-0.018793026
138	0x3ddb1549	0.10697419
139	0x3d569d3f	0.052396055
140	0xbc37f56b	-0.011227946
141	0x3deac7b2	0.1146387
142	0x3dc0c593	0.09412684
143	0x3dceabaa	0.10091336
144	0x3d19f381	0.03758574
145	0x3c90b9ed	0.017666781
146	0x3de588e3	0.1120775
147	0x3df22431	0.11823309
148	0x3d9932b4	0.07480374
149	0x3cb6fde1	0.022337856
150	0xbb8aedfe	-0.0042397967
151	0x3d236c81	0.0398984
152	0x3d2cb8b5	0.042168338
153	0x3c195078	0.009357564
154	0xbce6fd2e	-0.028196897
155	0x3ba6b33c	0.0050872844
156	0x3d318610	0.043340743
157	0x3cf303f8	0.029664978
158	0xbdad0722	-0.08448626
159	0xbe1c9268	-0.15290225
160	0x3c8cd9b4	0.017193653
161	0x3d3ec158	0.046571106
162	0x3cb67a6c	0.022275172
163	0xbd1e803c	-0.038696513
164	0xbd1deb86	-0.03855469
165	0xbd12375c	-0.035697326
166	0x3c603c1b	0.013686205
167	0xbccdf9ee	-0.02514359
168	0x3d77911a	0.060441114
169	0x3d77c03c	0.060486063
170	0xbd129a33	-0.035791587
171	0x3d8dbf0a	0.069212034
172	0x3cb43ad1	0.022000702
173	0x3bdda3ef	0.006763927
174	0xbd2135ed	-0.03935807
175	0x3cd6ba3f	0.026211856
176	0x3c97ab60	0.018514335
177	0xbc5274c1	-0.012845219
178	0xbcc701ee	-0.024292912
179	0xbca51486	-0.020151388
180	0x3a9b68e6	0.0011856824
181	0xbc18d38b	-0.0093277795
182	0xbba80311	-0.0051273187
183	0xbc5bbeb5	-0.013412167
184	0xbd9b2467	-0.075753026
185	0xbacb3b4a	-0.001550534
186	0x3d0318f6	0.032006226
187	0x3d1f53bc	0.038898215
188	0x3daef355	0.08542506
189	0x3d9b3b8d	0.07579718
190	0x3c9cca4f	0.019139437
191	0x3c2dbed7	0.010604582
192	0x3d043396	0.03227576
193	0x3d5e6aff	0.05430126
194	0x3d07704e	0.033066086
195	0xbd03426e	-0.032045774
196	0xbc7a4984	-0.015276317
197	0x3d89ff7f	0.06738185
198	0xbc85913d	-0.016304607
199	0xbcd9914c	-0.02655854
200	0xbc81de6d	-0.015853131
201	0xbbe40f81	-0.006959856
202	0xbca8b319	-0.020593213
203	0xbd15feda	-0.03662
204	0xbccfde3e	-0.025374528
205	0x3caa61d0	0.020798594
206	0x3c242256	0.010017952
207	0x3ca0eec6	0.019645106
208	0xbd04a8f3	-0.032387685
209	0xbd2d44a7	-0.0423018
210	0x3bed9b0a	0.007251148
211	0x3ba3c4fb	0.004997847
212	0x3cc08c34	0.023504354
213	0x3d1a605d	0.037689555
214	0x3ccba317	0.02485804
215	0x3c819211	0.01581672
216	0x3d6339bd	0.055474985
217	0xbb06cab1	-0.002056759
218	0x3cffe46d	0.031236852
219	0x3d09da62	0.03365553
220	0xbd47422a	-0.048647083
221	0x3d1ead04	0.03873922
222	0x3ccf714f	0.025322584
223	0xbc938b98	-0.0180109
224	0xbc54545c	-0.012959566
225	0x3c591d00	0.013251543
226	0x3d1cbaff	0.03826427
227	0x3c9bb4ea	0.019007165
228	0x3d86b097	0.065766506
229	0x3d4320fe	0.047638886
230	0xbdd508fb	-0.104021035
231	0x3d3486cd	0.04407387
232	0x3c65c17c	0.014023181
233	0xbb8e4811	-0.004342087
234	0xbda5e222	-0.08099772
235	0xbda0809b	-0.078370295
236	0xbd4747e9	-0.048652563
237	0xbd53e6da	-0.05173383
238	0xbd24e4b3	-0.040257167
239	0xbdf5ce26	-0.1200221
240	0xbcc41fc2	-0.023940925
241	0xbd5ad288	-0.053423434
242	0xbc5ef72b	-0.013608734
243	0xbd553c88	-0.05205968
244	0xbc823015	-0.015892068
245	0xbc5ffae3	-0.013670656
246	0x3daaa905	0.08333019
247	0xbc46aefd	-0.012126681
248	0xbc5de816	-0.013544103
249	0x3c8ed581	0.017435791
250	0x3c600317	0.013672612
251	0x3ceba8af	0.028766958
252	0xbb3c6dd4	-0.0028751986
253	0x3cb53379	0.02211927
254	0x3cccdba3	0.025007075
255	0xbb5c9a46	-0.003366129

fc1.bias f4 [128]
0	0x3c26f0df	0.010189264
1	0x3d15367e	0.03642892
2	0xbca421b6	-0.020035606
3	0xb908ca66	-0.0001304537
4	0xbbcfec79	-0.0063453284
5	0xbc923137	-0.017845733
6	0xbc4c383b	-0.012464578
7	0x3bf0a26e	0.007343582
8	0xbcf96e9e	-0.030448254
9	0xbc220ca8	-0.009890713
10	0x3b5fa671	0.0034126306
11	0xbb9767f4	-0.0046205465
12	0xbc43eb3f	-0.0119579425
13	0xbd087c0c	-0.033321425
14	0x3b6e190f	0.0036330854
15	0x3d09743c	0.033558115
16	0xbca8cd67	-0.020605756
17	0x3cd5bf16	0.026092093
18	0xbcd27e4c	-0.025694989
19	0x3c844659	0.016146826
20	0x3d558fe4	0.052139178
21	0xbcf8db8b	-0.030378124
22	0xbc44954a	-0.011998484
23	0x3ce100a6	0.02746613
24	0x3d0d3b92	0.03448064
25	0xbb877756	-0.004134099
26	0x3c00693d	0.007837591
27	0x3b2839bf	0.0025669185
28	0x3cd89eec	0.026442967
29	0x3caf59aa	0.02140506
30	0xbc3dcaee	-0.011584027
31	0x3d374164	0.044740096
32	0x3cca24c1	0.024675729
33	0x3c252026	0.010078466
34	0xbc52b52c	-0.012860578
35	0xbb87c066	-0.0041428087
36	0xbb8453d0	-0.0040383115
37	0x3bc4aa0f	0.006001718
38	0xbcad4afe	-0.021153923
39	0x3c309b06	0.010779148
40	0xbc4bbdb1	-0.012435363
41	0xbc404b37	-0.011736683
42	0x3c7def0e	0.01549889
43	0x3d061386	0.032733463
44	0x3c343601	0.010999204
45	0x3b8cc4d9	0.004295927
46	0x3d0c30e7	0.034226324
47	0x3c89875a	0.016788173
48	0xbc9205a6	-0.017824959
49	0x3c8e8952	0.017399464
50	0xbca4c38a	-0.020112772
51	0xbc98fef1	-0.018676253
52	0x3cedb6be	0.029017802
53	0x3ab21b1c	0.0013588401
54	0xbc08b7bc	-0.008344587
55	0xbc94140d	-0.018075967
56	0xbd0ba5a3	-0.03409351
57	0xb97f9a15	-0.00024376095
58	0x3c6b2a98	0.014353417
59	0x3cc6d228	0.024270132
60	0x3d0ae82f	0.033912834
61	0x3ca61276	0.020272475
62	0x3c1ee69a	0.009698534
63	0xbb534e70	-0.0032242797
64	0x3ced8c41	0.028997542
65	0x3c9555d8	0.01822941
66	0xbc23b177	-0.009991041
67	0xbb9a7bf2	-0.0047144825
68	0xbcde734e	-0.027154591
69	0xbce6cfba	-0.028175224
70	0x3c0f3822	0.00874141
71	0x3c3931d8	0.011303388
72	0x3c0ec584	0.008714084
73	0x3c84f5ef	0.016230552
74	0xbbdceb21	-0.0067418967
75	0xbc01035f	-0.007874339
76	0x3c9f8929	0.019474583
77	0xba99f6b6	-0.0011746499
78	0x3a715ef7	0.0009207571
79	0xbc9a451f	-0.018831788
80	0x3c956778	0.018237814
81	0xbcbe813d	-0.023254985
82	0xbb05bb85	-0.002040596
83	0xbaeab1e7	-0.0017905802
84	0x3bd47814	0.006484041
85	0xbb3516bb	-0.0027631957
86	0xbc3b3d3b	-0.011428173
87	0xbb28615a	-0.0025692792
88	0x3c96b057	0.018394632
89	0xbcf66e80	-0.030081987
90	0x3cb2c8a5	0.02182419
91	0x3cfd6931	0.030933948
92	0x3c9282a6	0.017884564
93	0xbcb5beaa	-0.022185642
94	0x3ce50891	0.027958186
95	0x3b5e0c89	0.0033881983
96	0xbc0a5f6d	-0.008445603
97	0x3bb99ddf	0.0056645717
98	0xbc624c38	-0.013812117
99	0xbcade3b7	-0.021226747
100	0xbc514d19	-0.012774729
101	0xba73ef13	-0.0009305339
102	0xbbb4c728	-0.0055169053
103	0xbc67d74e	-0.014150454
104	0x3cbf99cd	0.023388768
105	0xbcc297b1	-0.023753973
106	0x3c13b3b8	0.009015016
107	0xbcaf881e	-0.02142721
108	0x3ad06512	0.0015899262
109	0x3c1b6bda	0.009486163
110	0x3d14ad53	0.036298107
111	0x3cbf8232	0.023377512
112	0x3cf41afe	0.029798027
113	0xbc8831a6	-0.016625237
114	0xbb043b7c	-0.0020177057
115	0xbb8e4466	-0.00434165
116	0xbc0d9a66	-0.0086427685
117	0xbb0b10b5	-0.0021219675
118	0xbb0c6e71	-0.0021428133
119	0x3ce34b02	0.027745727
120	0xbc6e531c	-0.014546182
121	0xbb0130ff	-0.0019713042
122	0x3a610a96	0.0008584646
123	0x3c97f5b3	0.018549776
124	0xbbcd7e54	-0.006271163
125	0x3c4177c6	0.011808341
126	0xbc811631	-0.015757652
127	0x3d007e2a	0.03137032

fc2.weight f4 [10, 128]
0	0x3da62f85	0.081145324
1	0xbe31d2f6	-0.17365631
2	0xbd3af332	-0.045642085
3	0x3d4d0467	0.050053027
4	0x3d2393a3	0.03993572
5	0xbd67518b	-0.05647425
6	0x3d6f0c33	0.058361243
7	0x3c2732bd	0.010204968
8	0x3cdc155f	0.02686566
9	0xbd2052cc	-0.03914146
10	0x3d11ce5b	0.035597187
11	0x3bcfaf7d	0.0063380585
12	0xbcf2bd82	-0.02963138
13	0xbdf79d7a	-0.12090583
14	0xbce1204a	-0.027481217
15	0xbdd89814	-0.105758816
16	0xbd3bfe9f	-0.045897122
17	0xbdb5e327	-0.088812165
18	0x3d645995	0.055749495
19	0xbe0e352b	-0.1388747
20	0x3d7ee9d7	0.062234726
21	0xbdbaa6f7	-0.09113877
22	0xbd8e54a1	-0.069497354
23	0x3dbfc7fb	0.09364315
24	0x3df991a8	0.12185985
25	0xbd567067	-0.05235329
26	0xbdf9375a	-0.121687606
27	0x3d9fdd9b	0.0780594
28	0x3d7c40dc	0.061585292
29	0x3d9d8a97	0.076924495
30	0xbda5569e	-0.080731615
31	0x3d660842	0.05616022
32	0x3ca3d504	0.019999035
33	0x3d4d207d	0.05007981
34	0x3d9ac0a3	0.07556274
35	0x3d75a8ca	0.059975423
36	0xbdf71a47	-0.12065559
37	0x3e0a0300	0.13477707
38	0xbc654570	-0.013993606
39	0xbdacd360	-0.08438754
40	0xbd610933	-0.054940414
41	0x3d1353c6	0.035968564
42	0xbd30257f	-0.04300451
43	0x3dbfcfa8	0.09365779
44	0xbde6c070	-0.11267173
45	0x3d82c30e	0.0638486
46	0x3d821dbc	0.06353328
47	0x3c9c8a94	0.019109048
48	0x3d9995fc	0.074993104
49	0x3db642b4	0.08899441
50	0xbdc2cb98	-0.09511489
51	0x3ccf84af	0.025331823
52	0xbdf76eb7	-0.12081664
53	0xbd223256	-0.039598785
54	0xbe569998	-0.20957029
55	0x3d4b3576	0.04961153
56	0xbc6c01b7	-0.014404706
57	0x3c075509	0.00826002
58	0x3d92cbd9	0.07167787
59	0x3d09e949	0.033669744
60	0x3d883587	0.066508345
61	0xbcb27955	-0.021786371
62	0xbd04711f	-0.032334443
63	0x3e4e15f4	0.20125562
64	0x3dd2caa6	0.10292558
65	0xba16b748	-0.0005749357
66	0xbd2a329d	-0.041552175
67	0xbe36b870	-0.17843795
68	0xbda61849	-0.08110101
69	0xbcd3252b	-0.025774559
70	0x3aeec508	0.0018216679
71	0x3d43ed2c	0.047833607
72	0xbd9c66dc	-0.07636806
73	0x3d7b5377	0.061358895
74	0x3d50fadd	0.051020492
75	0x3c1f4b52	0.009722548
76	0x3d97e282	0.0741625
77	0x3d8a4460	0.06751323
78	0x3dd2d47f	0.10294437
79	0xbd235e76	-0.039885007
80	0xbe02d866	-0.12777862
81	0xbe066abb	-0.13126652
82	0x3d877fd9	0.06616182
83	0x3cf561d1	0.029953869
84	0xbe285acb	-0.16440885
85	0x3dd58da6	0.10427408
86	0xbd72893f	-0.05921292
87	0xbd0e486e	-0.034737043
88	0xbe4ba781	-0.19888116
89	0x3c17cab1	0.009264634
90	0x3a7b571b	0.000958787
91	0xbdcea46d	-0.100899555
92	0xbc7d2ab8	-0.0154520795
93	0x3d984890	0.07435715
94	0x3e2ce6c0	0.16884899
95	0x3e13e8c7	0.14444266
96	0xbe0c621d	-0.13709302
97	0x3d70fb8d	0.058833648
98	0x3be61559	0.007021588
99	0xbdd0b93d	-0.101915814
100	0x3b9f2b8a	0.004857485
101	0x3dd5c590	0.10438073
102	0x3b8b7b38	0.004256632
103	0x3d4a528d	0.049395133
104	0xbd538dff	-0.05164909
105	0xbc82f89c	-0.015987687
106	0xbce43bdf	-0.02786058
107	0x3d545909	0.051842723
108	0xbd856a14	-0.065143734
109	0x3dbea686	0.093091056
110	0x3c98f7d4	0.018672861
111	0xbe150e55	-0.14556248
112	0xbc873336	-0.016503911
113	0xbda27080	-0.07931614
114	0x3d8c1998	0.06840819
115	0xbd8b7bf8	-0.068107545
116	0x3d6059a7	0.054773
117	0x3a8d40d1	0.0010776763
118	0x3d5af597	0.05345687
119	0x3bf4297d	0.007451235
120	0xbd803c7b	-0.06261536
121	0x3e041573	0.12898807
122	0xbde812ad	-0.11331687
123	0x3d3b13e7	0.045673277
124	0x3dadc599	0.084849544
125	0xbe2bc438	-0.1677407
126	0xbdb39be9	-0.08769972
127	0xbe2191f9	-0.1577834
128	0x3d1a0ed9	0.037611816
129	0x3dda28a7	0.10652285
130	0xbd73e6c1	-0.059546236
131	0xbe2bc18d	-0.16773053
132	0xbdf00f61	-0.11721683
133	0xbd455e5c	-0.04818569
134	0xbd9e16d5	-0.077191986
135	0xbe007bc4	-0.12547213
136	0xbcfe708d	-0.031059528
137	0xbdd172d4	-0.1022698
138	0x3d9a72e4	0.07541445
139	0x387dda65	6.0523296e-05
140	0xbe3a512b	-0.18195026
141	0x3c524ecc	0.012836169
142	0xbd50185b	-0.050804477
143	0x3d9a28eb	0.07527336
144	0xbd2bd8db	-0.041954856
145	0xbb850cbc	-0.004060356
146	0x3d3d3872	0.04619641
147	0x3d16217a	0.03665302
148	0x3d96cf64	0.07363775
149	0x3d614756	0.054999672
150	0xbd73e12a	-0.059540905
151	0x3dcc3724	0.09971455
152	0x3bd82683	0.006596388
153	0xbd6a5adb	-0.057215553
154	0xbdcff87e	-0.10154818
155	0x3c6f9083	0.014621857
156	0xbdf5b619	-0.11997623
157	0xbce1bc74	-0.027555682
158	0x3cde3e04	0.02712918
159	0x3e06e2c5	0.13172443
160	0x3b8d5327	0.004312891
161	0xbd9d5311	-0.07681859
162	0x3cff6ae3	0.031178897
163	0xbd549be6	-0.05190649
164	0xbe0958b0	-0.13412738
165	0x3dc64d45	0.09682707
166	0xbd154d90	-0.036450922
167	0x3d28ffb2	0.041259475
168	0xbd6d3ba6	-0.057918213
169	0x3d7a9e32	0.061186023
170	0x3d3d76b7	0.046255793
171	0x3b2b4695	0.00261346
172	0x3c1a9926	0.0094359275
173	0xbe14612f	-0.14490198
174	0xbc06900b	-0.008213053
175	0x3d771e83	0.060331833
176	0xbd584d40	-0.052808046
177	0xbdb61552	-0.08890785
178	0xbe514e14	-0.2043994
179	0xbd7c825f	-0.06164777
180	0x3dfe19a2	0.12407233
181	0x3b9320da	0.00449
182	0x3d5209ab	0.05127875
183	0xbd4f1e37	-0.050565924
184	0xbd6c7820	-0.057731748
185	0x3d7068a6	0.05869355
186	0x3dabe49a	0.08393212
187	0x3e1212a3	0.14264922
188	0xbd6cd6f1	-0.05782217
189	0x3d24a6b2	0.040198036
190	0xbd55369e	-0.05205404
191	0x3de7e48a	0.11322887
192	0x3d1531e5	0.036424536
193	0x3d7fabca	0.06241969
194	0xbdf02169	-0.117251225
195	0x3e38102a	0.17974916
196	0x3c5e86cd	0.013581944
197	0xbd2c620a	-0.042085685
198	0xbce6edc8	-0.028189555
199	0x3dc6e9f6	0.09712593
200	0x3d00d9a3	0.031457555
201	0xbc9c415a	-0.01907413
202	0x3cd37880	0.025814295
203	0x3d04170b	0.032248538
204	0xbcf74701	-0.030185224
205	0xbd2d5345	-0.04231574
206	0x3d01ec8b	0.031719726
207	0xbdfa93de	-0.12235235
208	0x3e0ff223	0.14057212
209	0xbd206e8c	-0.039167926
210	0x3cc52db8	0.024069652
211	0xbda0602a	-0.07830842
212	0x3aeb124b	0.0017934529
213	0xbd164957	-0.036691036
214	0xbdbbc266	-0.09167938
215	0xbd511695	-0.051046927
216	0xbc894fb1	-0.016761633
217	0xbdad7e8e	-0.08471404
218	0xbd698993	-0.057015967
219	0x3db3dcfa	0.08782382
220	0xbe1d552c	-0.15364522
221	0xbd3ac9f8	-0.04560277
222	0x3dad22f2	0.08453931
223	0x3dfaa325	0.122381486
224	0x3cd087ab	0.025455317
225	0xbe10a997	-0.14127193
226	0xbba7ce27	-0.005121011
227	0xbdfe5f0c	-0.124204725
228	0xbd919bf5	-0.071098246
229	0x3e180df9	0.1484908
230	0x3d1ed5a2	0.038777955
231	0xbde48415	-0.11158005
232	0x3d9e013f	0.077150814
233	0x3c9d1ebc	0.019179694
234	0x3dd18d42	0.10232021
235	0x3c339d7c	0.01096284
236	0xbdb80ce4	-0.08986834
237	0xbdd16da8	-0.102259934
238	0x3d95caf5	0.073141016
239	0x3dbf7522	0.09348513
240	0x3de951aa	0.11392529
241	0x3d85c17b	0.06531044
242	0x3ddf71e3	0.10910394
243	0x3dc47f63	0.095946096
244	0xbdaf4678	-0.08558363
245	0xbcbbd155	-0.022926966
246	0xbe4752b0	-0.19465137
247	0x3d1ac255	0.037782986
248	0xbdbfaed2	-0.09359516
249	0x3ce48d64	0.027899452
250	0x3ca5b164	0.020226188
251	0xbb99ec58	-0.004697364
252	0xbdc442f7	-0.09583085
253	0x3d19b334	0.037524417
254	0xbddaa94c	-0.10676822
255	0x3dcd1f5d	0.10015748

fc2.bias f4 [10]
0	0xbcbfc54f	-0.023409514
1	0xbd8f471d	-0.06995986
2	0xbd92d380	-0.07169247
3	0x3c69f4e9	0.014279583
4	0x3c854685	0.016268978
5	0xbc9f39fe	-0.019436833
6	0xbd991ba3	-0.074759744
7	0x3d10d51f	0.035359498
8	0xbd709d50	-0.058743775
9	0x3d36c376	0.04462
